adaptation/visualization/fclayer.npy (npy, 27920 bytes, 1 tensors)

array f4 [80, 87]
000000 f7 bf 84 3e ec db 4f 3f 78 53 84 3e f9 f2 20 3f
       0.25927708 0.8119495 0.25844932 0.62870747
000010 fb d5 83 3e db d2 58 3e 23 f4 b7 3e 5b 3d 84 3e
       0.25749192 0.21174185 0.3592845 0.2582806
000020 62 00 b3 3e d3 27 7d be 92 2a 09 3f 25 31 0e 3f
       0.3496123 -0.24722223 0.5358058 0.5554374
000030 4e 48 8f 3e 68 54 47 3f 15 95 8c 3e b8 df 3e 3e
       0.27984852 0.7786317 0.2745749 0.1864003
000040 2e 9b 84 3e c0 f7 89 3e 40 2d e2 3e db 26 a2 be
       0.25899643 0.2694683 0.44175148 -0.3167027
000050 24 35 86 3e 00 0d cc bd 00 5f cb 3e 2f f1 8e 3e
       0.26212418 -0.09963417 0.39720917 0.27918383
000060 af fd 0c 3f 04 de 84 3e 24 20 48 3f 7d d0 f0 3e
       0.5507459 0.25950634 0.7817404 0.47034064
000070 1a 5e 86 3e 4b 38 84 3e 35 df 64 3f d0 c3 be 3e
       0.2624367 0.25824198 0.89403087 0.37258768
000080 87 63 84 3e 3b da 84 3e 0b 52 18 3f 3b c3 84 3e
       0.25857183 0.25947747 0.5950019 0.259302
000090 93 c8 31 3f 00 5c 84 3e 1a 48 b8 bc fa 32 85 3e
       0.69446677 0.2585144 -0.022495318 0.26015455
0000a0 b0 c4 84 3e c8 e6 28 3f e6 a6 84 3e 79 c8 26 3f
       0.2593131 0.65977144 0.25908583 0.65149647
0000b0 19 70 87 3e bb c2 57 be 6f 36 84 3e 2f 58 43 3a
       0.2645271 -0.21070378 0.2582278 0.00074518
0000c0 df c8 84 3e 0a c0 84 3e 02 df 09 3f fc a9 84 3e
       0.25934502 0.25927764 0.5385591 0.25910938
0000d0 b5 3c 38 3e e3 af 91 3e af 49 8d 3e 9f 46 84 3e
       0.17991908 0.28454503 0.2759528 0.2583513
0000e0 ef a1 84 3e fb ae 27 3e 32 d9 84 3e a7 f7 a8 be
       0.25904796 0.16375344 0.25946957 -0.33001444
0000f0 ed 3c 84 3e 68 29 98 3e b6 db 4b 3f 03 37 85 3e
       0.25827733 0.2971909 0.7963213 0.26018533
000100 bc b9 b5 3e e2 aa 84 3e 8b 3d 84 3e 83 62 c9 bc
       0.35493267 0.25911623 0.25828204 -0.024583107
000110 19 de 8b 3e ea 72 74 be a6 95 84 3e 4a 65 84 3e
       0.27317885 -0.23871961 0.25895423 0.25858527
000120 2d ab 77 3f 04 4e e7 be 23 a4 84 3e df 58 84 3e
       0.9674557 -0.4517671 0.25906476 0.25849053
000130 4f 4f eb 3e c5 a0 84 3e 45 d6 78 bf 78 66 84 3e
       0.45958945 0.25903907 -0.9720195 0.25859427
000140 8e 3c 8d 3e 5c ea 87 3e 60 8c c3 bc 4a 97 84 3e
       0.27585262 0.2654599 -0.023870647 0.25896674
000150 25 78 44 3f f2 c9 de 3c 6d 3f e3 be 94 e8 dc bd
       0.76745826 0.027195904 -0.44384328 -0.10786548
000160 6d 66 64 3e 43 bf dc bd 35 8b 0e bf 33 e1 d6 bd
       0.22304697 -0.10778668 -0.55681163 -0.10492172
000170 e8 0d 09 be 19 3a eb bc 82 43 de bd 1c c9 d8 bd
       -0.13384211 -0.028714227 -0.1085272 -0.105852336
000180 a4 72 be 3e 06 b0 9a 3c 79 ae 2d 3d 96 9e 65 bd
       0.3719684 0.018882763 0.04240272 -0.056059442
000190 35 7b 7d 3c db 24 d0 bd d3 5e 1a bf 4e 7c dd bd
       0.015471269 -0.101632796 -0.6030094 -0.10814725
0001a0 15 2c d7 bd 3d 7a 2d bd 24 fd 6b be 24 13 d7 bd
       -0.10506455 -0.042352904 -0.23045784 -0.10501698
0001b0 0e 38 1f 3d 80 69 0e bb d7 43 d3 bd a9 20 de bd
       0.038871817 -0.0021730363 -0.10315674 -0.10846073
0001c0 93 6e de bd 53 a8 d0 3d 95 ce d5 bc 74 89 d8 bd
       -0.10860934 0.10188355 -0.026099483 -0.10573092
0001d0 df d6 dd bd 05 bf d2 bc 20 7d 6c bc 22 49 dd bd
       -0.10831999 -0.02572585 -0.014434129 -0.108049646
0001e0 8f 69 dd bd cb 8a 89 bb 6d 07 df bd 8b 2c dc be
       -0.10811149 -0.0041974536 -0.10890088 -0.43002734
0001f0 84 bf dc bd c5 ac ae 3d a7 68 dd bd 03 44 df bd
       -0.10778716 0.08529047 -0.108109765 -0.10901644
000200 37 a8 4e be 0d 5d dc bd b9 14 7a 3e 8c 20 db bd
       -0.20181356 -0.107599355 0.24421968 -0.10699567
000210 e0 0d 90 be 6a eb dc bd fe d1 16 be 47 12 dd bd
       -0.28135586 -0.10787089 -0.14728543 -0.10794502
000220 8e d7 dd bd 4d 1e cf 3d b7 0c dd bd 6d cf 43 3e
       -0.108321294 0.10113201 -0.10793441 0.19122095
000230 1e 95 bf bd 7f a9 28 3e 88 5c de bd ba 1d de bd
       -0.09354614 0.16470908 -0.10857493 -0.10845514
000240 7d 61 21 3e 83 6e dd bd 66 a9 bf bd 3d f9 de bd
       0.15759845 -0.10812094 -0.09358482 -0.10887382
000250 00 4f 07 be b1 98 94 3b c4 8a d7 bd cd f4 8f 3d
       -0.1321373 0.004534804 -0.10524514 0.07029114
000260 07 b7 dc bd 7e 11 de bd 87 4b 74 bd a9 17 d2 bd
       -0.10777097 -0.1084318 -0.05964234 -0.10258419
000270 ff af ae bc df 7e de bd 7c 19 de bd 03 2f f3 bb
       -0.021324156 -0.108640425 -0.108447045 -0.0074213757
000280 fe c2 7e 3c 03 b3 dd bd 0b 8c dd bd 2c 72 35 3d
       0.015549419 -0.108251594 -0.10817727 0.044298336
000290 82 ea de bd fd 70 2d 3e 2b 2b de bd e2 3c 03 bf
       -0.108845726 0.16937633 -0.108480774 -0.51264775
0002a0 57 fb d9 bd 86 c9 21 3d f0 f1 de bd c6 71 b3 bd
       -0.106436424 0.03949883 -0.1088599 -0.08761935
0002b0 1b 62 1e 3d 1e 1c fe bd 21 4a 5c be c6 81 11 be
       0.03866778 -0.12407707 -0.21512653 -0.14209661
0002c0 bc 1d 5c be f7 8d 5e be b9 4f 51 be a6 3e ed be
       -0.21495718 -0.21733843 -0.20440568 -0.4633686
0002d0 cc ed e9 bd e3 d2 5c be 18 7f c4 be 76 d7 00 3e
       -0.11422309 -0.21564822 -0.38378215 0.12582192
0002e0 ca f6 b1 bd 7b 37 19 be 63 db 4d be 26 27 e8 3e
       -0.086896494 -0.1496257 -0.2010322 0.45342368
0002f0 b2 41 47 be bb a3 1c bf 93 7d 5b be 10 05 5f be
       -0.19458655 -0.6118733 -0.21434622 -0.21779275
000300 85 25 d2 be ff 1f 7b be 40 89 54 be 6e a5 04 bf
       -0.4104425 -0.24523924 -0.20755482 -0.51814926
000310 79 13 31 be 8c a8 48 be 74 15 01 be 1f bf 5b be
       -0.17292584 -0.19595546 -0.1260584 -0.21459626
000320 68 41 10 3f b7 9f d2 bd 2a 4a 56 be 33 9e 5c be
       0.563498 -0.102843694 -0.20926729 -0.21544723
000330 0b 7c ad be 0c 87 9f be dd 6a 5c be ad fe 5b be
       -0.338837 -0.3115772 -0.2152514 -0.2148387
000340 0d 01 bc be fb 5f 5c be e1 95 06 bf 06 b5 5c be
       -0.36719552 -0.21520989 -0.5257245 -0.2155343
000350 e8 df 83 bd ce 69 62 be 0c de 5a be 0f e5 28 bf
       -0.06439191 -0.22110674 -0.21373767 -0.65974516
000360 dc f4 5b be 62 aa b8 bd 86 e6 56 be 5b c5 ec be
       -0.21480125 -0.09016873 -0.20986375 -0.4624432
000370 4e 7f 5b be d9 7d c0 be 15 37 5c be dd 82 5c be
       -0.21435282 -0.37596014 -0.21505387 -0.21534295
000380 76 15 4f be b9 41 5c be fd 9e 13 bf aa 99 48 be
       -0.2022303 -0.21509446 -0.5766447 -0.19589868
000390 d5 d5 b1 be 45 0b 5c be 13 95 5b be 81 5d 21 bf
       -0.34733453 -0.21488674 -0.21443586 -0.630333
0003a0 80 84 5c be b3 9c b7 be 0e fd 5c be 46 d1 41 be
       -0.2153492 -0.3586174 -0.21580908 -0.18927488
0003b0 f0 33 41 3e ab 86 58 be bb 58 bb be 8a e5 5b be
       0.18867469 -0.21145122 -0.36591133 -0.21474281
0003c0 39 b8 5c be c7 ad cb be d7 03 63 be 54 ec da be
       -0.2155465 -0.3978102 -0.22169434 -0.4275843
0003d0 8b 30 5c be 14 f0 5b be e5 26 92 be 5e 62 e4 be
       -0.21502893 -0.21478301 -0.285453 -0.44606298
0003e0 89 fa 5b be 05 39 5c be 3b 71 83 be b4 3e 5c be
       -0.2148229 -0.21506126 -0.25672325 -0.21508294
0003f0 91 30 d9 be 0e 78 5b be 1c d5 e3 bc d5 64 62 be
       -0.42419866 -0.21432516 -0.02781158 -0.22108777
